<?xml version="1.0"?>
<net name="Model0" version="11">
	<layers>
		<layer id="0" name="y" type="Parameter" version="opset1">
			<data shape="?,?" element_type="f32" />
			<output>
				<port id="0" precision="FP32" names="y">
					<dim>-1</dim>
					<dim>-1</dim>
				</port>
			</output>
		</layer>
		<layer id="1" name="15" type="Const" version="opset1">
			<data element_type="i64" shape="" offset="0" size="8" />
			<output>
				<port id="0" precision="I64" names="15" />
			</output>
		</layer>
		<layer id="2" name="aten::unsqueeze/Unsqueeze" type="Unsqueeze" version="opset1">
			<input>
				<port id="0" precision="FP32">
					<dim>-1</dim>
					<dim>-1</dim>
				</port>
				<port id="1" precision="I64" />
			</input>
			<output>
				<port id="2" precision="FP32" names="16,input.1">
					<dim>-1</dim>
					<dim>1</dim>
					<dim>-1</dim>
				</port>
			</output>
		</layer>
		<layer id="3" name="aten::pad/Concat" type="Const" version="opset1">
			<data element_type="i32" shape="3" offset="8" size="12" />
			<rt_info>
				<attribute name="precise" version="0" />
			</rt_info>
			<output>
				<port id="0" precision="I32">
					<dim>3</dim>
				</port>
			</output>
		</layer>
		<layer id="4" name="aten::pad/ConvertLike_compressed" type="Const" version="opset1">
			<data element_type="f16" shape="" offset="20" size="2" />
			<output>
				<port id="0" precision="FP16" />
			</output>
		</layer>
		<layer id="5" name="aten::pad/ConvertLike" type="Convert" version="opset1">
			<data destination_type="f32" />
			<rt_info>
				<attribute name="decompression" version="0" />
			</rt_info>
			<input>
				<port id="0" precision="FP16" />
			</input>
			<output>
				<port id="1" precision="FP32" />
			</output>
		</layer>
		<layer id="6" name="aten::pad/Pad" type="Pad" version="opset1">
			<data pad_mode="reflect" />
			<input>
				<port id="0" precision="FP32">
					<dim>-1</dim>
					<dim>1</dim>
					<dim>-1</dim>
				</port>
				<port id="1" precision="I32">
					<dim>3</dim>
				</port>
				<port id="2" precision="I32">
					<dim>3</dim>
				</port>
				<port id="3" precision="FP32" />
			</input>
			<output>
				<port id="4" precision="FP32" names="22,y_1">
					<dim>-1</dim>
					<dim>1</dim>
					<dim>-1</dim>
				</port>
			</output>
		</layer>
		<layer id="7" name="23" type="Const" version="opset1">
			<data element_type="i64" shape="" offset="0" size="8" />
			<output>
				<port id="0" precision="I64" names="23" />
			</output>
		</layer>
		<layer id="8" name="aten::squeeze/Squeeze" type="Squeeze" version="opset1">
			<input>
				<port id="0" precision="FP32">
					<dim>-1</dim>
					<dim>1</dim>
					<dim>-1</dim>
				</port>
				<port id="1" precision="I64" />
			</input>
			<output>
				<port id="2" precision="FP32" names="24,input.3">
					<dim>-1</dim>
					<dim>-1</dim>
				</port>
			</output>
		</layer>
		<layer id="9" name="aten::to/Convert_compressed" type="Const" version="opset1">
			<data element_type="f16" shape="1024" offset="22" size="2048" />
			<output>
				<port id="0" precision="FP16" names="14,window">
					<dim>1024</dim>
				</port>
			</output>
		</layer>
		<layer id="10" name="aten::to/Convert" type="Convert" version="opset1">
			<data destination_type="f32" />
			<rt_info>
				<attribute name="decompression" version="0" />
			</rt_info>
			<input>
				<port id="0" precision="FP16">
					<dim>1024</dim>
				</port>
			</input>
			<output>
				<port id="1" precision="FP32">
					<dim>1024</dim>
				</port>
			</output>
		</layer>
		<layer id="11" name="25" type="Const" version="opset1">
			<data element_type="i64" shape="" offset="2070" size="8" />
			<output>
				<port id="0" precision="I64" names="25" />
			</output>
		</layer>
		<layer id="12" name="26" type="Const" version="opset1">
			<data element_type="i64" shape="" offset="2078" size="8" />
			<output>
				<port id="0" precision="I64" names="26" />
			</output>
		</layer>
		<layer id="13" name="aten::stft/STFT" type="STFT" version="opset15">
			<data transpose_frames="true" />
			<input>
				<port id="0" precision="FP32">
					<dim>-1</dim>
					<dim>-1</dim>
				</port>
				<port id="1" precision="FP32">
					<dim>1024</dim>
				</port>
				<port id="2" precision="I64" />
				<port id="3" precision="I64" />
			</input>
			<output>
				<port id="4" precision="FP32" names="32,spec.1">
					<dim>-1</dim>
					<dim>513</dim>
					<dim>-1</dim>
					<dim>2</dim>
				</port>
			</output>
		</layer>
		<layer id="14" name="Constant_3656_compressed" type="Const" version="opset1">
			<data element_type="f16" shape="1, 1, 1, 1" offset="2086" size="2" />
			<output>
				<port id="0" precision="FP16">
					<dim>1</dim>
					<dim>1</dim>
					<dim>1</dim>
					<dim>1</dim>
				</port>
			</output>
		</layer>
		<layer id="15" name="Constant_3656" type="Convert" version="opset1">
			<data destination_type="f32" />
			<rt_info>
				<attribute name="decompression" version="0" />
			</rt_info>
			<input>
				<port id="0" precision="FP16">
					<dim>1</dim>
					<dim>1</dim>
					<dim>1</dim>
					<dim>1</dim>
				</port>
			</input>
			<output>
				<port id="1" precision="FP32">
					<dim>1</dim>
					<dim>1</dim>
					<dim>1</dim>
					<dim>1</dim>
				</port>
			</output>
		</layer>
		<layer id="16" name="aten::pow/Power" type="Power" version="opset1">
			<data auto_broadcast="numpy" />
			<input>
				<port id="0" precision="FP32">
					<dim>-1</dim>
					<dim>513</dim>
					<dim>-1</dim>
					<dim>2</dim>
				</port>
				<port id="1" precision="FP32">
					<dim>1</dim>
					<dim>1</dim>
					<dim>1</dim>
					<dim>1</dim>
				</port>
			</input>
			<output>
				<port id="2" precision="FP32" names="34">
					<dim>-1</dim>
					<dim>513</dim>
					<dim>-1</dim>
					<dim>2</dim>
				</port>
			</output>
		</layer>
		<layer id="17" name="Constant_84" type="Const" version="opset1">
			<data element_type="i64" shape="1" offset="2088" size="8" />
			<output>
				<port id="0" precision="I64" names="36">
					<dim>1</dim>
				</port>
			</output>
		</layer>
		<layer id="18" name="aten::sum/ReduceSum" type="ReduceSum" version="opset1">
			<data keep_dims="false" />
			<input>
				<port id="0" precision="FP32">
					<dim>-1</dim>
					<dim>513</dim>
					<dim>-1</dim>
					<dim>2</dim>
				</port>
				<port id="1" precision="I64">
					<dim>1</dim>
				</port>
			</input>
			<output>
				<port id="2" precision="FP32" names="39">
					<dim>-1</dim>
					<dim>513</dim>
					<dim>-1</dim>
				</port>
			</output>
		</layer>
		<layer id="19" name="Constant_3657_compressed" type="Const" version="opset1">
			<data element_type="f16" shape="1, 1, 1" offset="2096" size="2" />
			<output>
				<port id="0" precision="FP16">
					<dim>1</dim>
					<dim>1</dim>
					<dim>1</dim>
				</port>
			</output>
		</layer>
		<layer id="20" name="Constant_3657" type="Convert" version="opset1">
			<data destination_type="f32" />
			<rt_info>
				<attribute name="decompression" version="0" />
			</rt_info>
			<input>
				<port id="0" precision="FP16">
					<dim>1</dim>
					<dim>1</dim>
					<dim>1</dim>
				</port>
			</input>
			<output>
				<port id="1" precision="FP32">
					<dim>1</dim>
					<dim>1</dim>
					<dim>1</dim>
				</port>
			</output>
		</layer>
		<layer id="21" name="aten::add/Add" type="Add" version="opset1">
			<data auto_broadcast="numpy" />
			<input>
				<port id="0" precision="FP32">
					<dim>-1</dim>
					<dim>513</dim>
					<dim>-1</dim>
				</port>
				<port id="1" precision="FP32">
					<dim>1</dim>
					<dim>1</dim>
					<dim>1</dim>
				</port>
			</input>
			<output>
				<port id="2" precision="FP32" names="42">
					<dim>-1</dim>
					<dim>513</dim>
					<dim>-1</dim>
				</port>
			</output>
		</layer>
		<layer id="22" name="aten::sqrt/Sqrt" type="Sqrt" version="opset1">
			<input>
				<port id="0" precision="FP32">
					<dim>-1</dim>
					<dim>513</dim>
					<dim>-1</dim>
				</port>
			</input>
			<output>
				<port id="1" precision="FP32" names="43,spec">
					<dim>-1</dim>
					<dim>513</dim>
					<dim>-1</dim>
				</port>
			</output>
		</layer>
		<layer id="23" name="aten::transpose/Constant" type="Const" version="opset1">
			<data element_type="i32" shape="3" offset="2098" size="12" />
			<output>
				<port id="0" precision="I32">
					<dim>3</dim>
				</port>
			</output>
		</layer>
		<layer id="24" name="aten::transpose/Transpose" type="Transpose" version="opset1">
			<input>
				<port id="0" precision="FP32">
					<dim>-1</dim>
					<dim>513</dim>
					<dim>-1</dim>
				</port>
				<port id="1" precision="I32">
					<dim>3</dim>
				</port>
			</input>
			<output>
				<port id="2" precision="FP32" names="46,inputs">
					<dim>-1</dim>
					<dim>-1</dim>
					<dim>513</dim>
				</port>
			</output>
		</layer>
		<layer id="25" name="__module.ref_enc/prim::ListConstruct" type="Const" version="opset1">
			<data element_type="i64" shape="4" offset="2110" size="32" />
			<rt_info>
				<attribute name="precise" version="0" />
			</rt_info>
			<output>
				<port id="0" precision="I64">
					<dim>4</dim>
				</port>
			</output>
		</layer>
		<layer id="26" name="__module.ref_enc/aten::view/Reshape" type="Reshape" version="opset1">
			<data special_zero="true" />
			<input>
				<port id="0" precision="FP32">
					<dim>-1</dim>
					<dim>-1</dim>
					<dim>513</dim>
				</port>
				<port id="1" precision="I64">
					<dim>4</dim>
				</port>
			</input>
			<output>
				<port id="2" precision="FP32" names="117,input.5">
					<dim>-1</dim>
					<dim>1</dim>
					<dim>-1</dim>
					<dim>513</dim>
				</port>
			</output>
		</layer>
		<layer id="27" name="__module.ref_enc.layernorm/aten::layer_norm/Multiply" type="Const" version="opset1">
			<data element_type="i32" shape="1" offset="2142" size="4" />
			<output>
				<port id="0" precision="I32">
					<dim>1</dim>
				</port>
			</output>
		</layer>
		<layer id="28" name="__module.ref_enc.layernorm/aten::layer_norm/MVN" type="MVN" version="opset6">
			<data eps="9.9999997473787516e-06" normalize_variance="true" eps_mode="INSIDE_SQRT" />
			<input>
				<port id="0" precision="FP32">
					<dim>-1</dim>
					<dim>1</dim>
					<dim>-1</dim>
					<dim>513</dim>
				</port>
				<port id="1" precision="I32">
					<dim>1</dim>
				</port>
			</input>
			<output>
				<port id="2" precision="FP32">
					<dim>-1</dim>
					<dim>1</dim>
					<dim>-1</dim>
					<dim>513</dim>
				</port>
			</output>
		</layer>
		<layer id="29" name="Constant_3658_compressed" type="Const" version="opset1">
			<data element_type="f16" shape="1, 1, 1, 513" offset="2146" size="1026" />
			<output>
				<port id="0" precision="FP16">
					<dim>1</dim>
					<dim>1</dim>
					<dim>1</dim>
					<dim>513</dim>
				</port>
			</output>
		</layer>
		<layer id="30" name="Constant_3658" type="Convert" version="opset1">
			<data destination_type="f32" />
			<rt_info>
				<attribute name="decompression" version="0" />
			</rt_info>
			<input>
				<port id="0" precision="FP16">
					<dim>1</dim>
					<dim>1</dim>
					<dim>1</dim>
					<dim>513</dim>
				</port>
			</input>
			<output>
				<port id="1" precision="FP32">
					<dim>1</dim>
					<dim>1</dim>
					<dim>1</dim>
					<dim>513</dim>
				</port>
			</output>
		</layer>
		<layer id="31" name="__module.ref_enc.layernorm/aten::layer_norm/Multiply_1" type="Multiply" version="opset1">
			<data auto_broadcast="numpy" />
			<input>
				<port id="0" precision="FP32">
					<dim>-1</dim>
					<dim>1</dim>
					<dim>-1</dim>
					<dim>513</dim>
				</port>
				<port id="1" precision="FP32">
					<dim>1</dim>
					<dim>1</dim>
					<dim>1</dim>
					<dim>513</dim>
				</port>
			</input>
			<output>
				<port id="2" precision="FP32">
					<dim>-1</dim>
					<dim>1</dim>
					<dim>-1</dim>
					<dim>513</dim>
				</port>
			</output>
		</layer>
		<layer id="32" name="Constant_3659_compressed" type="Const" version="opset1">
			<data element_type="f16" shape="1, 1, 1, 513" offset="3172" size="1026" />
			<output>
				<port id="0" precision="FP16">
					<dim>1</dim>
					<dim>1</dim>
					<dim>1</dim>
					<dim>513</dim>
				</port>
			</output>
		</layer>
		<layer id="33" name="Constant_3659" type="Convert" version="opset1">
			<data destination_type="f32" />
			<rt_info>
				<attribute name="decompression" version="0" />
			</rt_info>
			<input>
				<port id="0" precision="FP16">
					<dim>1</dim>
					<dim>1</dim>
					<dim>1</dim>
					<dim>513</dim>
				</port>
			</input>
			<output>
				<port id="1" precision="FP32">
					<dim>1</dim>
					<dim>1</dim>
					<dim>1</dim>
					<dim>513</dim>
				</port>
			</output>
		</layer>
		<layer id="34" name="__module.ref_enc.layernorm/aten::layer_norm/Add" type="Add" version="opset1">
			<data auto_broadcast="numpy" />
			<input>
				<port id="0" precision="FP32">
					<dim>-1</dim>
					<dim>1</dim>
					<dim>-1</dim>
					<dim>513</dim>
				</port>
				<port id="1" precision="FP32">
					<dim>1</dim>
					<dim>1</dim>
					<dim>1</dim>
					<dim>513</dim>
				</port>
			</input>
			<output>
				<port id="2" precision="FP32" names="121,input.7">
					<dim>-1</dim>
					<dim>1</dim>
					<dim>-1</dim>
					<dim>513</dim>
				</port>
			</output>
		</layer>
		<layer id="35" name="__module.ref_enc/aten::_weight_norm/Multiply_compressed" type="Const" version="opset1">
			<data element_type="f16" shape="32, 1, 3, 3" offset="4198" size="576" />
			<output>
				<port id="0" precision="FP16" names="122,weight.3">
					<dim>32</dim>
					<dim>1</dim>
					<dim>3</dim>
					<dim>3</dim>
				</port>
			</output>
		</layer>
		<layer id="36" name="__module.ref_enc/aten::_weight_norm/Multiply" type="Convert" version="opset1">
			<data destination_type="f32" />
			<rt_info>
				<attribute name="decompression" version="0" />
			</rt_info>
			<input>
				<port id="0" precision="FP16">
					<dim>32</dim>
					<dim>1</dim>
					<dim>3</dim>
					<dim>3</dim>
				</port>
			</input>
			<output>
				<port id="1" precision="FP32">
					<dim>32</dim>
					<dim>1</dim>
					<dim>3</dim>
					<dim>3</dim>
				</port>
			</output>
		</layer>
		<layer id="37" name="__module.ref_enc.convs.0/aten::_convolution/Convolution" type="Convolution" version="opset1">
			<data strides="2, 2" dilations="1, 1" pads_begin="1, 1" pads_end="1, 1" auto_pad="explicit" />
			<input>
				<port id="0" precision="FP32">
					<dim>-1</dim>
					<dim>1</dim>
					<dim>-1</dim>
					<dim>513</dim>
				</port>
				<port id="1" precision="FP32">
					<dim>32</dim>
					<dim>1</dim>
					<dim>3</dim>
					<dim>3</dim>
				</port>
			</input>
			<output>
				<port id="2" precision="FP32">
					<dim>-1</dim>
					<dim>32</dim>
					<dim>-1</dim>
					<dim>257</dim>
				</port>
			</output>
		</layer>
		<layer id="38" name="__module.ref_enc.convs.0/aten::_convolution/Reshape_compressed" type="Const" version="opset1">
			<data element_type="f16" shape="1, 32, 1, 1" offset="4774" size="64" />
			<output>
				<port id="0" precision="FP16">
					<dim>1</dim>
					<dim>32</dim>
					<dim>1</dim>
					<dim>1</dim>
				</port>
			</output>
		</layer>
		<layer id="39" name="__module.ref_enc.convs.0/aten::_convolution/Reshape" type="Convert" version="opset1">
			<data destination_type="f32" />
			<rt_info>
				<attribute name="decompression" version="0" />
			</rt_info>
			<input>
				<port id="0" precision="FP16">
					<dim>1</dim>
					<dim>32</dim>
					<dim>1</dim>
					<dim>1</dim>
				</port>
			</input>
			<output>
				<port id="1" precision="FP32">
					<dim>1</dim>
					<dim>32</dim>
					<dim>1</dim>
					<dim>1</dim>
				</port>
			</output>
		</layer>
		<layer id="40" name="__module.ref_enc.convs.0/aten::_convolution/Add" type="Add" version="opset1">
			<data auto_broadcast="numpy" />
			<input>
				<port id="0" precision="FP32">
					<dim>-1</dim>
					<dim>32</dim>
					<dim>-1</dim>
					<dim>257</dim>
				</port>
				<port id="1" precision="FP32">
					<dim>1</dim>
					<dim>32</dim>
					<dim>1</dim>
					<dim>1</dim>
				</port>
			</input>
			<output>
				<port id="2" precision="FP32" names="128,input.9">
					<dim>-1</dim>
					<dim>32</dim>
					<dim>-1</dim>
					<dim>257</dim>
				</port>
			</output>
		</layer>
		<layer id="41" name="__module.ref_enc/aten::relu/Relu" type="ReLU" version="opset1">
			<input>
				<port id="0" precision="FP32">
					<dim>-1</dim>
					<dim>32</dim>
					<dim>-1</dim>
					<dim>257</dim>
				</port>
			</input>
			<output>
				<port id="1" precision="FP32" names="129,input.11">
					<dim>-1</dim>
					<dim>32</dim>
					<dim>-1</dim>
					<dim>257</dim>
				</port>
			</output>
		</layer>
		<layer id="42" name="__module.ref_enc/aten::_weight_norm/Multiply_1_compressed" type="Const" version="opset1">
			<data element_type="f16" shape="32, 32, 3, 3" offset="4838" size="18432" />
			<output>
				<port id="0" precision="FP16" names="130,weight.5">
					<dim>32</dim>
					<dim>32</dim>
					<dim>3</dim>
					<dim>3</dim>
				</port>
			</output>
		</layer>
		<layer id="43" name="__module.ref_enc/aten::_weight_norm/Multiply_1" type="Convert" version="opset1">
			<data destination_type="f32" />
			<rt_info>
				<attribute name="decompression" version="0" />
			</rt_info>
			<input>
				<port id="0" precision="FP16">
					<dim>32</dim>
					<dim>32</dim>
					<dim>3</dim>
					<dim>3</dim>
				</port>
			</input>
			<output>
				<port id="1" precision="FP32">
					<dim>32</dim>
					<dim>32</dim>
					<dim>3</dim>
					<dim>3</dim>
				</port>
			</output>
		</layer>
		<layer id="44" name="__module.ref_enc.convs.1/aten::_convolution/Convolution" type="Convolution" version="opset1">
			<data strides="2, 2" dilations="1, 1" pads_begin="1, 1" pads_end="1, 1" auto_pad="explicit" />
			<input>
				<port id="0" precision="FP32">
					<dim>-1</dim>
					<dim>32</dim>
					<dim>-1</dim>
					<dim>257</dim>
				</port>
				<port id="1" precision="FP32">
					<dim>32</dim>
					<dim>32</dim>
					<dim>3</dim>
					<dim>3</dim>
				</port>
			</input>
			<output>
				<port id="2" precision="FP32">
					<dim>-1</dim>
					<dim>32</dim>
					<dim>-1</dim>
					<dim>129</dim>
				</port>
			</output>
		</layer>
		<layer id="45" name="__module.ref_enc.convs.1/aten::_convolution/Reshape_compressed" type="Const" version="opset1">
			<data element_type="f16" shape="1, 32, 1, 1" offset="23270" size="64" />
			<output>
				<port id="0" precision="FP16">
					<dim>1</dim>
					<dim>32</dim>
					<dim>1</dim>
					<dim>1</dim>
				</port>
			</output>
		</layer>
		<layer id="46" name="__module.ref_enc.convs.1/aten::_convolution/Reshape" type="Convert" version="opset1">
			<data destination_type="f32" />
			<rt_info>
				<attribute name="decompression" version="0" />
			</rt_info>
			<input>
				<port id="0" precision="FP16">
					<dim>1</dim>
					<dim>32</dim>
					<dim>1</dim>
					<dim>1</dim>
				</port>
			</input>
			<output>
				<port id="1" precision="FP32">
					<dim>1</dim>
					<dim>32</dim>
					<dim>1</dim>
					<dim>1</dim>
				</port>
			</output>
		</layer>
		<layer id="47" name="__module.ref_enc.convs.1/aten::_convolution/Add" type="Add" version="opset1">
			<data auto_broadcast="numpy" />
			<input>
				<port id="0" precision="FP32">
					<dim>-1</dim>
					<dim>32</dim>
					<dim>-1</dim>
					<dim>129</dim>
				</port>
				<port id="1" precision="FP32">
					<dim>1</dim>
					<dim>32</dim>
					<dim>1</dim>
					<dim>1</dim>
				</port>
			</input>
			<output>
				<port id="2" precision="FP32" names="136,input.13">
					<dim>-1</dim>
					<dim>32</dim>
					<dim>-1</dim>
					<dim>129</dim>
				</port>
			</output>
		</layer>
		<layer id="48" name="__module.ref_enc/aten::relu/Relu_1" type="ReLU" version="opset1">
			<input>
				<port id="0" precision="FP32">
					<dim>-1</dim>
					<dim>32</dim>
					<dim>-1</dim>
					<dim>129</dim>
				</port>
			</input>
			<output>
				<port id="1" precision="FP32" names="137,input.15">
					<dim>-1</dim>
					<dim>32</dim>
					<dim>-1</dim>
					<dim>129</dim>
				</port>
			</output>
		</layer>
		<layer id="49" name="__module.ref_enc/aten::_weight_norm/Multiply_2_compressed" type="Const" version="opset1">
			<data element_type="f16" shape="64, 32, 3, 3" offset="23334" size="36864" />
			<output>
				<port id="0" precision="FP16" names="138,weight.7">
					<dim>64</dim>
					<dim>32</dim>
					<dim>3</dim>
					<dim>3</dim>
				</port>
			</output>
		</layer>
		<layer id="50" name="__module.ref_enc/aten::_weight_norm/Multiply_2" type="Convert" version="opset1">
			<data destination_type="f32" />
			<rt_info>
				<attribute name="decompression" version="0" />
			</rt_info>
			<input>
				<port id="0" precision="FP16">
					<dim>64</dim>
					<dim>32</dim>
					<dim>3</dim>
					<dim>3</dim>
				</port>
			</input>
			<output>
				<port id="1" precision="FP32">
					<dim>64</dim>
					<dim>32</dim>
					<dim>3</dim>
					<dim>3</dim>
				</port>
			</output>
		</layer>
		<layer id="51" name="__module.ref_enc.convs.2/aten::_convolution/Convolution" type="Convolution" version="opset1">
			<data strides="2, 2" dilations="1, 1" pads_begin="1, 1" pads_end="1, 1" auto_pad="explicit" />
			<input>
				<port id="0" precision="FP32">
					<dim>-1</dim>
					<dim>32</dim>
					<dim>-1</dim>
					<dim>129</dim>
				</port>
				<port id="1" precision="FP32">
					<dim>64</dim>
					<dim>32</dim>
					<dim>3</dim>
					<dim>3</dim>
				</port>
			</input>
			<output>
				<port id="2" precision="FP32">
					<dim>-1</dim>
					<dim>64</dim>
					<dim>-1</dim>
					<dim>65</dim>
				</port>
			</output>
		</layer>
		<layer id="52" name="__module.ref_enc.convs.2/aten::_convolution/Reshape_compressed" type="Const" version="opset1">
			<data element_type="f16" shape="1, 64, 1, 1" offset="60198" size="128" />
			<output>
				<port id="0" precision="FP16">
					<dim>1</dim>
					<dim>64</dim>
					<dim>1</dim>
					<dim>1</dim>
				</port>
			</output>
		</layer>
		<layer id="53" name="__module.ref_enc.convs.2/aten::_convolution/Reshape" type="Convert" version="opset1">
			<data destination_type="f32" />
			<rt_info>
				<attribute name="decompression" version="0" />
			</rt_info>
			<input>
				<port id="0" precision="FP16">
					<dim>1</dim>
					<dim>64</dim>
					<dim>1</dim>
					<dim>1</dim>
				</port>
			</input>
			<output>
				<port id="1" precision="FP32">
					<dim>1</dim>
					<dim>64</dim>
					<dim>1</dim>
					<dim>1</dim>
				</port>
			</output>
		</layer>
		<layer id="54" name="__module.ref_enc.convs.2/aten::_convolution/Add" type="Add" version="opset1">
			<data auto_broadcast="numpy" />
			<input>
				<port id="0" precision="FP32">
					<dim>-1</dim>
					<dim>64</dim>
					<dim>-1</dim>
					<dim>65</dim>
				</port>
				<port id="1" precision="FP32">
					<dim>1</dim>
					<dim>64</dim>
					<dim>1</dim>
					<dim>1</dim>
				</port>
			</input>
			<output>
				<port id="2" precision="FP32" names="144,input.17">
					<dim>-1</dim>
					<dim>64</dim>
					<dim>-1</dim>
					<dim>65</dim>
				</port>
			</output>
		</layer>
		<layer id="55" name="__module.ref_enc/aten::relu/Relu_2" type="ReLU" version="opset1">
			<input>
				<port id="0" precision="FP32">
					<dim>-1</dim>
					<dim>64</dim>
					<dim>-1</dim>
					<dim>65</dim>
				</port>
			</input>
			<output>
				<port id="1" precision="FP32" names="145,input.19">
					<dim>-1</dim>
					<dim>64</dim>
					<dim>-1</dim>
					<dim>65</dim>
				</port>
			</output>
		</layer>
		<layer id="56" name="__module.ref_enc/aten::_weight_norm/Multiply_3_compressed" type="Const" version="opset1">
			<data element_type="f16" shape="64, 64, 3, 3" offset="60326" size="73728" />
			<output>
				<port id="0" precision="FP16" names="146,weight.9">
					<dim>64</dim>
					<dim>64</dim>
					<dim>3</dim>
					<dim>3</dim>
				</port>
			</output>
		</layer>
		<layer id="57" name="__module.ref_enc/aten::_weight_norm/Multiply_3" type="Convert" version="opset1">
			<data destination_type="f32" />
			<rt_info>
				<attribute name="decompression" version="0" />
			</rt_info>
			<input>
				<port id="0" precision="FP16">
					<dim>64</dim>
					<dim>64</dim>
					<dim>3</dim>
					<dim>3</dim>
				</port>
			</input>
			<output>
				<port id="1" precision="FP32">
					<dim>64</dim>
					<dim>64</dim>
					<dim>3</dim>
					<dim>3</dim>
				</port>
			</output>
		</layer>
		<layer id="58" name="__module.ref_enc.convs.3/aten::_convolution/Convolution" type="Convolution" version="opset1">
			<data strides="2, 2" dilations="1, 1" pads_begin="1, 1" pads_end="1, 1" auto_pad="explicit" />
			<input>
				<port id="0" precision="FP32">
					<dim>-1</dim>
					<dim>64</dim>
					<dim>-1</dim>
					<dim>65</dim>
				</port>
				<port id="1" precision="FP32">
					<dim>64</dim>
					<dim>64</dim>
					<dim>3</dim>
					<dim>3</dim>
				</port>
			</input>
			<output>
				<port id="2" precision="FP32">
					<dim>-1</dim>
					<dim>64</dim>
					<dim>-1</dim>
					<dim>33</dim>
				</port>
			</output>
		</layer>
		<layer id="59" name="__module.ref_enc.convs.3/aten::_convolution/Reshape_compressed" type="Const" version="opset1">
			<data element_type="f16" shape="1, 64, 1, 1" offset="134054" size="128" />
			<output>
				<port id="0" precision="FP16">
					<dim>1</dim>
					<dim>64</dim>
					<dim>1</dim>
					<dim>1</dim>
				</port>
			</output>
		</layer>
		<layer id="60" name="__module.ref_enc.convs.3/aten::_convolution/Reshape" type="Convert" version="opset1">
			<data destination_type="f32" />
			<rt_info>
				<attribute name="decompression" version="0" />
			</rt_info>
			<input>
				<port id="0" precision="FP16">
					<dim>1</dim>
					<dim>64</dim>
					<dim>1</dim>
					<dim>1</dim>
				</port>
			</input>
			<output>
				<port id="1" precision="FP32">
					<dim>1</dim>
					<dim>64</dim>
					<dim>1</dim>
					<dim>1</dim>
				</port>
			</output>
		</layer>
		<layer id="61" name="__module.ref_enc.convs.3/aten::_convolution/Add" type="Add" version="opset1">
			<data auto_broadcast="numpy" />
			<input>
				<port id="0" precision="FP32">
					<dim>-1</dim>
					<dim>64</dim>
					<dim>-1</dim>
					<dim>33</dim>
				</port>
				<port id="1" precision="FP32">
					<dim>1</dim>
					<dim>64</dim>
					<dim>1</dim>
					<dim>1</dim>
				</port>
			</input>
			<output>
				<port id="2" precision="FP32" names="152,input.21">
					<dim>-1</dim>
					<dim>64</dim>
					<dim>-1</dim>
					<dim>33</dim>
				</port>
			</output>
		</layer>
		<layer id="62" name="__module.ref_enc/aten::relu/Relu_3" type="ReLU" version="opset1">
			<input>
				<port id="0" precision="FP32">
					<dim>-1</dim>
					<dim>64</dim>
					<dim>-1</dim>
					<dim>33</dim>
				</port>
			</input>
			<output>
				<port id="1" precision="FP32" names="153,input.23">
					<dim>-1</dim>
					<dim>64</dim>
					<dim>-1</dim>
					<dim>33</dim>
				</port>
			</output>
		</layer>
		<layer id="63" name="__module.ref_enc/aten::_weight_norm/Multiply_4_compressed" type="Const" version="opset1">
			<data element_type="f16" shape="128, 64, 3, 3" offset="134182" size="147456" />
			<output>
				<port id="0" precision="FP16" names="154,weight.11">
					<dim>128</dim>
					<dim>64</dim>
					<dim>3</dim>
					<dim>3</dim>
				</port>
			</output>
		</layer>
		<layer id="64" name="__module.ref_enc/aten::_weight_norm/Multiply_4" type="Convert" version="opset1">
			<data destination_type="f32" />
			<rt_info>
				<attribute name="decompression" version="0" />
			</rt_info>
			<input>
				<port id="0" precision="FP16">
					<dim>128</dim>
					<dim>64</dim>
					<dim>3</dim>
					<dim>3</dim>
				</port>
			</input>
			<output>
				<port id="1" precision="FP32">
					<dim>128</dim>
					<dim>64</dim>
					<dim>3</dim>
					<dim>3</dim>
				</port>
			</output>
		</layer>
		<layer id="65" name="__module.ref_enc.convs.4/aten::_convolution/Convolution" type="Convolution" version="opset1">
			<data strides="2, 2" dilations="1, 1" pads_begin="1, 1" pads_end="1, 1" auto_pad="explicit" />
			<input>
				<port id="0" precision="FP32">
					<dim>-1</dim>
					<dim>64</dim>
					<dim>-1</dim>
					<dim>33</dim>
				</port>
				<port id="1" precision="FP32">
					<dim>128</dim>
					<dim>64</dim>
					<dim>3</dim>
					<dim>3</dim>
				</port>
			</input>
			<output>
				<port id="2" precision="FP32">
					<dim>-1</dim>
					<dim>128</dim>
					<dim>-1</dim>
					<dim>17</dim>
				</port>
			</output>
		</layer>
		<layer id="66" name="__module.ref_enc.convs.4/aten::_convolution/Reshape_compressed" type="Const" version="opset1">
			<data element_type="f16" shape="1, 128, 1, 1" offset="281638" size="256" />
			<output>
				<port id="0" precision="FP16">
					<dim>1</dim>
					<dim>128</dim>
					<dim>1</dim>
					<dim>1</dim>
				</port>
			</output>
		</layer>
		<layer id="67" name="__module.ref_enc.convs.4/aten::_convolution/Reshape" type="Convert" version="opset1">
			<data destination_type="f32" />
			<rt_info>
				<attribute name="decompression" version="0" />
			</rt_info>
			<input>
				<port id="0" precision="FP16">
					<dim>1</dim>
					<dim>128</dim>
					<dim>1</dim>
					<dim>1</dim>
				</port>
			</input>
			<output>
				<port id="1" precision="FP32">
					<dim>1</dim>
					<dim>128</dim>
					<dim>1</dim>
					<dim>1</dim>
				</port>
			</output>
		</layer>
		<layer id="68" name="__module.ref_enc.convs.4/aten::_convolution/Add" type="Add" version="opset1">
			<data auto_broadcast="numpy" />
			<input>
				<port id="0" precision="FP32">
					<dim>-1</dim>
					<dim>128</dim>
					<dim>-1</dim>
					<dim>17</dim>
				</port>
				<port id="1" precision="FP32">
					<dim>1</dim>
					<dim>128</dim>
					<dim>1</dim>
					<dim>1</dim>
				</port>
			</input>
			<output>
				<port id="2" precision="FP32" names="160,input.25">
					<dim>-1</dim>
					<dim>128</dim>
					<dim>-1</dim>
					<dim>17</dim>
				</port>
			</output>
		</layer>
		<layer id="69" name="__module.ref_enc/aten::relu/Relu_4" type="ReLU" version="opset1">
			<input>
				<port id="0" precision="FP32">
					<dim>-1</dim>
					<dim>128</dim>
					<dim>-1</dim>
					<dim>17</dim>
				</port>
			</input>
			<output>
				<port id="1" precision="FP32" names="161,input.27">
					<dim>-1</dim>
					<dim>128</dim>
					<dim>-1</dim>
					<dim>17</dim>
				</port>
			</output>
		</layer>
		<layer id="70" name="__module.ref_enc/aten::_weight_norm/Multiply_5_compressed" type="Const" version="opset1">
			<data element_type="f16" shape="128, 128, 3, 3" offset="281894" size="294912" />
			<output>
				<port id="0" precision="FP16" names="162,weight.13">
					<dim>128</dim>
					<dim>128</dim>
					<dim>3</dim>
					<dim>3</dim>
				</port>
			</output>
		</layer>
		<layer id="71" name="__module.ref_enc/aten::_weight_norm/Multiply_5" type="Convert" version="opset1">
			<data destination_type="f32" />
			<rt_info>
				<attribute name="decompression" version="0" />
			</rt_info>
			<input>
				<port id="0" precision="FP16">
					<dim>128</dim>
					<dim>128</dim>
					<dim>3</dim>
					<dim>3</dim>
				</port>
			</input>
			<output>
				<port id="1" precision="FP32">
					<dim>128</dim>
					<dim>128</dim>
					<dim>3</dim>
					<dim>3</dim>
				</port>
			</output>
		</layer>
		<layer id="72" name="__module.ref_enc.convs.5/aten::_convolution/Convolution" type="Convolution" version="opset1">
			<data strides="2, 2" dilations="1, 1" pads_begin="1, 1" pads_end="1, 1" auto_pad="explicit" />
			<input>
				<port id="0" precision="FP32">
					<dim>-1</dim>
					<dim>128</dim>
					<dim>-1</dim>
					<dim>17</dim>
				</port>
				<port id="1" precision="FP32">
					<dim>128</dim>
					<dim>128</dim>
					<dim>3</dim>
					<dim>3</dim>
				</port>
			</input>
			<output>
				<port id="2" precision="FP32">
					<dim>-1</dim>
					<dim>128</dim>
					<dim>-1</dim>
					<dim>9</dim>
				</port>
			</output>
		</layer>
		<layer id="73" name="__module.ref_enc.convs.5/aten::_convolution/Reshape_compressed" type="Const" version="opset1">
			<data element_type="f16" shape="1, 128, 1, 1" offset="576806" size="256" />
			<output>
				<port id="0" precision="FP16">
					<dim>1</dim>
					<dim>128</dim>
					<dim>1</dim>
					<dim>1</dim>
				</port>
			</output>
		</layer>
		<layer id="74" name="__module.ref_enc.convs.5/aten::_convolution/Reshape" type="Convert" version="opset1">
			<data destination_type="f32" />
			<rt_info>
				<attribute name="decompression" version="0" />
			</rt_info>
			<input>
				<port id="0" precision="FP16">
					<dim>1</dim>
					<dim>128</dim>
					<dim>1</dim>
					<dim>1</dim>
				</port>
			</input>
			<output>
				<port id="1" precision="FP32">
					<dim>1</dim>
					<dim>128</dim>
					<dim>1</dim>
					<dim>1</dim>
				</port>
			</output>
		</layer>
		<layer id="75" name="__module.ref_enc.convs.5/aten::_convolution/Add" type="Add" version="opset1">
			<data auto_broadcast="numpy" />
			<input>
				<port id="0" precision="FP32">
					<dim>-1</dim>
					<dim>128</dim>
					<dim>-1</dim>
					<dim>9</dim>
				</port>
				<port id="1" precision="FP32">
					<dim>1</dim>
					<dim>128</dim>
					<dim>1</dim>
					<dim>1</dim>
				</port>
			</input>
			<output>
				<port id="2" precision="FP32" names="168,input.29">
					<dim>-1</dim>
					<dim>128</dim>
					<dim>-1</dim>
					<dim>9</dim>
				</port>
			</output>
		</layer>
		<layer id="76" name="__module.ref_enc/aten::relu/Relu_5" type="ReLU" version="opset1">
			<input>
				<port id="0" precision="FP32">
					<dim>-1</dim>
					<dim>128</dim>
					<dim>-1</dim>
					<dim>9</dim>
				</port>
			</input>
			<output>
				<port id="1" precision="FP32" names="169,out.1">
					<dim>-1</dim>
					<dim>128</dim>
					<dim>-1</dim>
					<dim>9</dim>
				</port>
			</output>
		</layer>
		<layer id="77" name="__module.ref_enc/aten::transpose/Constant" type="Const" version="opset1">
			<data element_type="i32" shape="4" offset="577062" size="16" />
			<output>
				<port id="0" precision="I32">
					<dim>4</dim>
				</port>
			</output>
		</layer>
		<layer id="78" name="__module.ref_enc/aten::transpose/Transpose" type="Transpose" version="opset1">
			<input>
				<port id="0" precision="FP32">
					<dim>-1</dim>
					<dim>128</dim>
					<dim>-1</dim>
					<dim>9</dim>
				</port>
				<port id="1" precision="I32">
					<dim>4</dim>
				</port>
			</input>
			<output>
				<port id="2" precision="FP32" names="170,out.3">
					<dim>-1</dim>
					<dim>-1</dim>
					<dim>128</dim>
					<dim>9</dim>
				</port>
			</output>
		</layer>
		<layer id="79" name="__module.ref_enc/prim::ListConstruct_1" type="Const" version="opset1">
			<data element_type="i64" shape="3" offset="577078" size="24" />
			<rt_info>
				<attribute name="precise" version="0" />
			</rt_info>
			<output>
				<port id="0" precision="I64">
					<dim>3</dim>
				</port>
			</output>
		</layer>
		<layer id="80" name="__module.ref_enc/aten::view/Reshape_1" type="Reshape" version="opset1">
			<data special_zero="true" />
			<input>
				<port id="0" precision="FP32">
					<dim>-1</dim>
					<dim>-1</dim>
					<dim>128</dim>
					<dim>9</dim>
				</port>
				<port id="1" precision="I64">
					<dim>3</dim>
				</port>
			</input>
			<output>
				<port id="2" precision="FP32" names="175,input.31">
					<dim>-1</dim>
					<dim>-1</dim>
					<dim>1152</dim>
				</port>
			</output>
		</layer>
		<layer id="81" name="__module.ref_enc.gru/aten::zeros/Convert_compressed" type="Const" version="opset1">
			<data element_type="f16" shape="" offset="20" size="2" />
			<output>
				<port id="0" precision="FP16" />
			</output>
		</layer>
		<layer id="82" name="__module.ref_enc.gru/aten::zeros/Convert" type="Convert" version="opset1">
			<data destination_type="f32" />
			<rt_info>
				<attribute name="decompression" version="0" />
			</rt_info>
			<input>
				<port id="0" precision="FP16" />
			</input>
			<output>
				<port id="1" precision="FP32" />
			</output>
		</layer>
		<layer id="83" name="Constant_769" type="Const" version="opset1">
			<data element_type="i64" shape="1" offset="0" size="8" />
			<rt_info>
				<attribute name="precise" version="0" />
			</rt_info>
			<output>
				<port id="0" precision="I64">
					<dim>1</dim>
				</port>
			</output>
		</layer>
		<layer id="84" name="ShapeOf_3681" type="ShapeOf" version="opset3">
			<data output_type="i64" />
			<input>
				<port id="0" precision="FP32">
					<dim>-1</dim>
					<dim>-1</dim>
					<dim>1152</dim>
				</port>
			</input>
			<output>
				<port id="1" precision="I64">
					<dim>3</dim>
				</port>
			</output>
		</layer>
		<layer id="85" name="Constant_3682" type="Const" version="opset1">
			<data element_type="i64" shape="1" offset="577102" size="8" />
			<rt_info>
				<attribute name="precise" version="0" />
			</rt_info>
			<output>
				<port id="0" precision="I64">
					<dim>1</dim>
				</port>
			</output>
		</layer>
		<layer id="86" name="Constant_3683" type="Const" version="opset1">
			<data element_type="i64" shape="" offset="577102" size="8" />
			<rt_info>
				<attribute name="precise" version="0" />
			</rt_info>
			<output>
				<port id="0" precision="I64" />
			</output>
		</layer>
		<layer id="87" name="Gather_3684" type="Gather" version="opset8">
			<data batch_dims="0" />
			<input>
				<port id="0" precision="I64">
					<dim>3</dim>
				</port>
				<port id="1" precision="I64">
					<dim>1</dim>
				</port>
				<port id="2" precision="I64" />
			</input>
			<output>
				<port id="3" precision="I64" names="180">
					<dim>1</dim>
				</port>
			</output>
		</layer>
		<layer id="88" name="Constant_770" type="Const" version="opset1">
			<data element_type="i64" shape="1" offset="577110" size="8" />
			<rt_info>
				<attribute name="precise" version="0" />
			</rt_info>
			<output>
				<port id="0" precision="I64">
					<dim>1</dim>
				</port>
			</output>
		</layer>
		<layer id="89" name="__module.ref_enc.gru/prim::ListConstruct" type="Concat" version="opset1">
			<data axis="0" />
			<input>
				<port id="0" precision="I64">
					<dim>1</dim>
				</port>
				<port id="1" precision="I64">
					<dim>1</dim>
				</port>
				<port id="2" precision="I64">
					<dim>1</dim>
				</port>
			</input>
			<output>
				<port id="3" precision="I64">
					<dim>3</dim>
				</port>
			</output>
		</layer>
		<layer id="90" name="__module.ref_enc.gru/aten::zeros/Broadcast" type="Broadcast" version="opset3">
			<data mode="numpy" />
			<input>
				<port id="0" precision="FP32" />
				<port id="1" precision="I64">
					<dim>3</dim>
				</port>
			</input>
			<output>
				<port id="2" precision="FP32" names="182,hx">
					<dim>1</dim>
					<dim>-1</dim>
					<dim>128</dim>
				</port>
			</output>
		</layer>
		<layer id="91" name="Constant_3632" type="Const" version="opset1">
			<data element_type="i64" shape="3" offset="577118" size="24" />
			<rt_info>
				<attribute name="precise" version="0" />
			</rt_info>
			<output>
				<port id="0" precision="I64">
					<dim>3</dim>
				</port>
			</output>
		</layer>
		<layer id="92" name="__module.ref_enc.gru/aten::gru/Transpose" type="Reshape" version="opset1">
			<data special_zero="true" />
			<input>
				<port id="0" precision="FP32">
					<dim>1</dim>
					<dim>-1</dim>
					<dim>128</dim>
				</port>
				<port id="1" precision="I64">
					<dim>3</dim>
				</port>
			</input>
			<output>
				<port id="2" precision="FP32">
					<dim>-1</dim>
					<dim>1</dim>
					<dim>128</dim>
				</port>
			</output>
		</layer>
		<layer id="93" name="Convert_3689" type="Convert" version="opset1">
			<data destination_type="i32" />
			<input>
				<port id="0" precision="I64">
					<dim>3</dim>
				</port>
			</input>
			<output>
				<port id="1" precision="I32">
					<dim>3</dim>
				</port>
			</output>
		</layer>
		<layer id="94" name="Constant_788" type="Const" version="opset1">
			<data element_type="i32" shape="1" offset="577142" size="4" />
			<output>
				<port id="0" precision="I32">
					<dim>1</dim>
				</port>
			</output>
		</layer>
		<layer id="95" name="Constant_818" type="Const" version="opset1">
			<data element_type="i32" shape="1" offset="577146" size="4" />
			<output>
				<port id="0" precision="I32">
					<dim>1</dim>
				</port>
			</output>
		</layer>
		<layer id="96" name="__module.ref_enc.gru/aten::gru/Gather" type="Gather" version="opset8">
			<data batch_dims="0" />
			<input>
				<port id="0" precision="I32">
					<dim>3</dim>
				</port>
				<port id="1" precision="I32">
					<dim>1</dim>
				</port>
				<port id="2" precision="I32">
					<dim>1</dim>
				</port>
			</input>
			<output>
				<port id="3" precision="I32">
					<dim>1</dim>
				</port>
			</output>
		</layer>
		<layer id="97" name="Convert_3690" type="Convert" version="opset1">
			<data destination_type="i32" />
			<input>
				<port id="0" precision="I64">
					<dim>1</dim>
				</port>
			</input>
			<output>
				<port id="1" precision="I32">
					<dim>1</dim>
				</port>
			</output>
		</layer>
		<layer id="98" name="__module.ref_enc.gru/aten::gru/Broadcast" type="Broadcast" version="opset3">
			<data mode="numpy" />
			<input>
				<port id="0" precision="I32">
					<dim>1</dim>
				</port>
				<port id="1" precision="I32">
					<dim>1</dim>
				</port>
			</input>
			<output>
				<port id="2" precision="I32">
					<dim>-1</dim>
				</port>
			</output>
		</layer>
		<layer id="99" name="__module.ref_enc.gru/aten::gru/Unsqueeze_compressed" type="Const" version="opset1">
			<data element_type="f16" shape="1, 384, 1152" offset="577150" size="884736" />
			<output>
				<port id="0" precision="FP16">
					<dim>1</dim>
					<dim>384</dim>
					<dim>1152</dim>
				</port>
			</output>
		</layer>
		<layer id="100" name="__module.ref_enc.gru/aten::gru/Unsqueeze" type="Convert" version="opset1">
			<data destination_type="f32" />
			<rt_info>
				<attribute name="decompression" version="0" />
			</rt_info>
			<input>
				<port id="0" precision="FP16">
					<dim>1</dim>
					<dim>384</dim>
					<dim>1152</dim>
				</port>
			</input>
			<output>
				<port id="1" precision="FP32">
					<dim>1</dim>
					<dim>384</dim>
					<dim>1152</dim>
				</port>
			</output>
		</layer>
		<layer id="101" name="__module.ref_enc.gru/aten::gru/Unsqueeze_1_compressed" type="Const" version="opset1">
			<data element_type="f16" shape="1, 384, 128" offset="1461886" size="98304" />
			<output>
				<port id="0" precision="FP16">
					<dim>1</dim>
					<dim>384</dim>
					<dim>128</dim>
				</port>
			</output>
		</layer>
		<layer id="102" name="__module.ref_enc.gru/aten::gru/Unsqueeze_1" type="Convert" version="opset1">
			<data destination_type="f32" />
			<rt_info>
				<attribute name="decompression" version="0" />
			</rt_info>
			<input>
				<port id="0" precision="FP16">
					<dim>1</dim>
					<dim>384</dim>
					<dim>128</dim>
				</port>
			</input>
			<output>
				<port id="1" precision="FP32">
					<dim>1</dim>
					<dim>384</dim>
					<dim>128</dim>
				</port>
			</output>
		</layer>
		<layer id="103" name="__module.ref_enc.gru/aten::gru/Concat_compressed" type="Const" version="opset1">
			<data element_type="f16" shape="1, 512" offset="1560190" size="1024" />
			<output>
				<port id="0" precision="FP16">
					<dim>1</dim>
					<dim>512</dim>
				</port>
			</output>
		</layer>
		<layer id="104" name="__module.ref_enc.gru/aten::gru/Concat" type="Convert" version="opset1">
			<data destination_type="f32" />
			<rt_info>
				<attribute name="decompression" version="0" />
			</rt_info>
			<input>
				<port id="0" precision="FP16">
					<dim>1</dim>
					<dim>512</dim>
				</port>
			</input>
			<output>
				<port id="1" precision="FP32">
					<dim>1</dim>
					<dim>512</dim>
				</port>
			</output>
		</layer>
		<layer id="105" name="__module.ref_enc.gru/aten::gru/GRUSequence" type="GRUSequence" version="opset5">
			<data direction="forward" linear_before_reset="true" hidden_size="128" activations="sigmoid, tanh" activations_alpha="" activations_beta="" clip="0" />
			<input>
				<port id="0" precision="FP32">
					<dim>-1</dim>
					<dim>-1</dim>
					<dim>1152</dim>
				</port>
				<port id="1" precision="FP32">
					<dim>-1</dim>
					<dim>1</dim>
					<dim>128</dim>
				</port>
				<port id="2" precision="I32">
					<dim>-1</dim>
				</port>
				<port id="3" precision="FP32">
					<dim>1</dim>
					<dim>384</dim>
					<dim>1152</dim>
				</port>
				<port id="4" precision="FP32">
					<dim>1</dim>
					<dim>384</dim>
					<dim>128</dim>
				</port>
				<port id="5" precision="FP32">
					<dim>1</dim>
					<dim>512</dim>
				</port>
			</input>
			<output>
				<port id="6" precision="FP32">
					<dim>-1</dim>
					<dim>1</dim>
					<dim>-1</dim>
					<dim>128</dim>
				</port>
				<port id="7" precision="FP32">
					<dim>-1</dim>
					<dim>1</dim>
					<dim>128</dim>
				</port>
			</output>
		</layer>
		<layer id="106" name="Constant_3599" type="Const" version="opset1">
			<data element_type="i32" shape="1" offset="577142" size="4" />
			<output>
				<port id="0" precision="I32">
					<dim>1</dim>
				</port>
			</output>
		</layer>
		<layer id="107" name="Squeeze_3600" type="Squeeze" version="opset1">
			<input>
				<port id="0" precision="FP32">
					<dim>-1</dim>
					<dim>1</dim>
					<dim>128</dim>
				</port>
				<port id="1" precision="I32">
					<dim>1</dim>
				</port>
			</input>
			<output>
				<port id="2" precision="FP32" names="186,input">
					<dim>-1</dim>
					<dim>128</dim>
				</port>
			</output>
		</layer>
		<layer id="108" name="self.ref_enc.proj.weight_compressed" type="Const" version="opset1">
			<data element_type="f16" shape="256, 128" offset="1561214" size="65536" />
			<output>
				<port id="0" precision="FP16" names="self.ref_enc.proj.weight">
					<dim>256</dim>
					<dim>128</dim>
				</port>
			</output>
		</layer>
		<layer id="109" name="self.ref_enc.proj.weight" type="Convert" version="opset1">
			<data destination_type="f32" />
			<rt_info>
				<attribute name="decompression" version="0" />
			</rt_info>
			<input>
				<port id="0" precision="FP16">
					<dim>256</dim>
					<dim>128</dim>
				</port>
			</input>
			<output>
				<port id="1" precision="FP32">
					<dim>256</dim>
					<dim>128</dim>
				</port>
			</output>
		</layer>
		<layer id="110" name="__module.ref_enc.proj/aten::linear/MatMul" type="MatMul" version="opset1">
			<data transpose_a="false" transpose_b="true" />
			<input>
				<port id="0" precision="FP32">
					<dim>-1</dim>
					<dim>128</dim>
				</port>
				<port id="1" precision="FP32">
					<dim>256</dim>
					<dim>128</dim>
				</port>
			</input>
			<output>
				<port id="2" precision="FP32">
					<dim>-1</dim>
					<dim>256</dim>
				</port>
			</output>
		</layer>
		<layer id="111" name="Constant_3660_compressed" type="Const" version="opset1">
			<data element_type="f16" shape="1, 256" offset="1626750" size="512" />
			<output>
				<port id="0" precision="FP16">
					<dim>1</dim>
					<dim>256</dim>
				</port>
			</output>
		</layer>
		<layer id="112" name="Constant_3660" type="Convert" version="opset1">
			<data destination_type="f32" />
			<rt_info>
				<attribute name="decompression" version="0" />
			</rt_info>
			<input>
				<port id="0" precision="FP16">
					<dim>1</dim>
					<dim>256</dim>
				</port>
			</input>
			<output>
				<port id="1" precision="FP32">
					<dim>1</dim>
					<dim>256</dim>
				</port>
			</output>
		</layer>
		<layer id="113" name="__module.ref_enc.proj/aten::linear/Add" type="Add" version="opset1">
			<data auto_broadcast="numpy" />
			<input>
				<port id="0" precision="FP32">
					<dim>-1</dim>
					<dim>256</dim>
				</port>
				<port id="1" precision="FP32">
					<dim>1</dim>
					<dim>256</dim>
				</port>
			</input>
			<output>
				<port id="2" precision="FP32" names="189">
					<dim>-1</dim>
					<dim>256</dim>
				</port>
			</output>
		</layer>
		<layer id="114" name="48" type="Const" version="opset1">
			<data element_type="i64" shape="" offset="2088" size="8" />
			<output>
				<port id="0" precision="I64" names="48" />
			</output>
		</layer>
		<layer id="115" name="aten::unsqueeze/Unsqueeze_1" type="Unsqueeze" version="opset1">
			<input>
				<port id="0" precision="FP32">
					<dim>-1</dim>
					<dim>256</dim>
				</port>
				<port id="1" precision="I64" />
			</input>
			<output>
				<port id="2" precision="FP32" names="g">
					<dim>-1</dim>
					<dim>256</dim>
					<dim>1</dim>
				</port>
			</output>
		</layer>
		<layer id="116" name="Result_839" type="Result" version="opset1" output_names="g">
			<input>
				<port id="0" precision="FP32">
					<dim>-1</dim>
					<dim>256</dim>
					<dim>1</dim>
				</port>
			</input>
		</layer>
	</layers>
	<edges>
		<edge from-layer="0" from-port="0" to-layer="2" to-port="0" />
		<edge from-layer="1" from-port="0" to-layer="2" to-port="1" />
		<edge from-layer="2" from-port="2" to-layer="6" to-port="0" />
		<edge from-layer="3" from-port="0" to-layer="6" to-port="1" />
		<edge from-layer="3" from-port="0" to-layer="6" to-port="2" />
		<edge from-layer="4" from-port="0" to-layer="5" to-port="0" />
		<edge from-layer="5" from-port="1" to-layer="6" to-port="3" />
		<edge from-layer="6" from-port="4" to-layer="8" to-port="0" />
		<edge from-layer="7" from-port="0" to-layer="8" to-port="1" />
		<edge from-layer="8" from-port="2" to-layer="13" to-port="0" />
		<edge from-layer="9" from-port="0" to-layer="10" to-port="0" />
		<edge from-layer="10" from-port="1" to-layer="13" to-port="1" />
		<edge from-layer="11" from-port="0" to-layer="13" to-port="2" />
		<edge from-layer="12" from-port="0" to-layer="13" to-port="3" />
		<edge from-layer="13" from-port="4" to-layer="16" to-port="0" />
		<edge from-layer="14" from-port="0" to-layer="15" to-port="0" />
		<edge from-layer="15" from-port="1" to-layer="16" to-port="1" />
		<edge from-layer="16" from-port="2" to-layer="18" to-port="0" />
		<edge from-layer="17" from-port="0" to-layer="18" to-port="1" />
		<edge from-layer="18" from-port="2" to-layer="21" to-port="0" />
		<edge from-layer="19" from-port="0" to-layer="20" to-port="0" />
		<edge from-layer="20" from-port="1" to-layer="21" to-port="1" />
		<edge from-layer="21" from-port="2" to-layer="22" to-port="0" />
		<edge from-layer="22" from-port="1" to-layer="24" to-port="0" />
		<edge from-layer="23" from-port="0" to-layer="24" to-port="1" />
		<edge from-layer="24" from-port="2" to-layer="26" to-port="0" />
		<edge from-layer="25" from-port="0" to-layer="26" to-port="1" />
		<edge from-layer="26" from-port="2" to-layer="28" to-port="0" />
		<edge from-layer="27" from-port="0" to-layer="28" to-port="1" />
		<edge from-layer="28" from-port="2" to-layer="31" to-port="0" />
		<edge from-layer="29" from-port="0" to-layer="30" to-port="0" />
		<edge from-layer="30" from-port="1" to-layer="31" to-port="1" />
		<edge from-layer="31" from-port="2" to-layer="34" to-port="0" />
		<edge from-layer="32" from-port="0" to-layer="33" to-port="0" />
		<edge from-layer="33" from-port="1" to-layer="34" to-port="1" />
		<edge from-layer="34" from-port="2" to-layer="37" to-port="0" />
		<edge from-layer="35" from-port="0" to-layer="36" to-port="0" />
		<edge from-layer="36" from-port="1" to-layer="37" to-port="1" />
		<edge from-layer="37" from-port="2" to-layer="40" to-port="0" />
		<edge from-layer="38" from-port="0" to-layer="39" to-port="0" />
		<edge from-layer="39" from-port="1" to-layer="40" to-port="1" />
		<edge from-layer="40" from-port="2" to-layer="41" to-port="0" />
		<edge from-layer="41" from-port="1" to-layer="44" to-port="0" />
		<edge from-layer="42" from-port="0" to-layer="43" to-port="0" />
		<edge from-layer="43" from-port="1" to-layer="44" to-port="1" />
		<edge from-layer="44" from-port="2" to-layer="47" to-port="0" />
		<edge from-layer="45" from-port="0" to-layer="46" to-port="0" />
		<edge from-layer="46" from-port="1" to-layer="47" to-port="1" />
		<edge from-layer="47" from-port="2" to-layer="48" to-port="0" />
		<edge from-layer="48" from-port="1" to-layer="51" to-port="0" />
		<edge from-layer="49" from-port="0" to-layer="50" to-port="0" />
		<edge from-layer="50" from-port="1" to-layer="51" to-port="1" />
		<edge from-layer="51" from-port="2" to-layer="54" to-port="0" />
		<edge from-layer="52" from-port="0" to-layer="53" to-port="0" />
		<edge from-layer="53" from-port="1" to-layer="54" to-port="1" />
		<edge from-layer="54" from-port="2" to-layer="55" to-port="0" />
		<edge from-layer="55" from-port="1" to-layer="58" to-port="0" />
		<edge from-layer="56" from-port="0" to-layer="57" to-port="0" />
		<edge from-layer="57" from-port="1" to-layer="58" to-port="1" />
		<edge from-layer="58" from-port="2" to-layer="61" to-port="0" />
		<edge from-layer="59" from-port="0" to-layer="60" to-port="0" />
		<edge from-layer="60" from-port="1" to-layer="61" to-port="1" />
		<edge from-layer="61" from-port="2" to-layer="62" to-port="0" />
		<edge from-layer="62" from-port="1" to-layer="65" to-port="0" />
		<edge from-layer="63" from-port="0" to-layer="64" to-port="0" />
		<edge from-layer="64" from-port="1" to-layer="65" to-port="1" />
		<edge from-layer="65" from-port="2" to-layer="68" to-port="0" />
		<edge from-layer="66" from-port="0" to-layer="67" to-port="0" />
		<edge from-layer="67" from-port="1" to-layer="68" to-port="1" />
		<edge from-layer="68" from-port="2" to-layer="69" to-port="0" />
		<edge from-layer="69" from-port="1" to-layer="72" to-port="0" />
		<edge from-layer="70" from-port="0" to-layer="71" to-port="0" />
		<edge from-layer="71" from-port="1" to-layer="72" to-port="1" />
		<edge from-layer="72" from-port="2" to-layer="75" to-port="0" />
		<edge from-layer="73" from-port="0" to-layer="74" to-port="0" />
		<edge from-layer="74" from-port="1" to-layer="75" to-port="1" />
		<edge from-layer="75" from-port="2" to-layer="76" to-port="0" />
		<edge from-layer="76" from-port="1" to-layer="78" to-port="0" />
		<edge from-layer="77" from-port="0" to-layer="78" to-port="1" />
		<edge from-layer="78" from-port="2" to-layer="80" to-port="0" />
		<edge from-layer="79" from-port="0" to-layer="80" to-port="1" />
		<edge from-layer="80" from-port="2" to-layer="84" to-port="0" />
		<edge from-layer="80" from-port="2" to-layer="105" to-port="0" />
		<edge from-layer="81" from-port="0" to-layer="82" to-port="0" />
		<edge from-layer="82" from-port="1" to-layer="90" to-port="0" />
		<edge from-layer="83" from-port="0" to-layer="89" to-port="0" />
		<edge from-layer="84" from-port="1" to-layer="87" to-port="0" />
		<edge from-layer="84" from-port="1" to-layer="93" to-port="0" />
		<edge from-layer="85" from-port="0" to-layer="87" to-port="1" />
		<edge from-layer="86" from-port="0" to-layer="87" to-port="2" />
		<edge from-layer="87" from-port="3" to-layer="89" to-port="1" />
		<edge from-layer="87" from-port="3" to-layer="97" to-port="0" />
		<edge from-layer="88" from-port="0" to-layer="89" to-port="2" />
		<edge from-layer="89" from-port="3" to-layer="90" to-port="1" />
		<edge from-layer="90" from-port="2" to-layer="92" to-port="0" />
		<edge from-layer="91" from-port="0" to-layer="92" to-port="1" />
		<edge from-layer="92" from-port="2" to-layer="105" to-port="1" />
		<edge from-layer="93" from-port="1" to-layer="96" to-port="0" />
		<edge from-layer="94" from-port="0" to-layer="96" to-port="1" />
		<edge from-layer="95" from-port="0" to-layer="96" to-port="2" />
		<edge from-layer="96" from-port="3" to-layer="98" to-port="0" />
		<edge from-layer="97" from-port="1" to-layer="98" to-port="1" />
		<edge from-layer="98" from-port="2" to-layer="105" to-port="2" />
		<edge from-layer="99" from-port="0" to-layer="100" to-port="0" />
		<edge from-layer="100" from-port="1" to-layer="105" to-port="3" />
		<edge from-layer="101" from-port="0" to-layer="102" to-port="0" />
		<edge from-layer="102" from-port="1" to-layer="105" to-port="4" />
		<edge from-layer="103" from-port="0" to-layer="104" to-port="0" />
		<edge from-layer="104" from-port="1" to-layer="105" to-port="5" />
		<edge from-layer="105" from-port="7" to-layer="107" to-port="0" />
		<edge from-layer="106" from-port="0" to-layer="107" to-port="1" />
		<edge from-layer="107" from-port="2" to-layer="110" to-port="0" />
		<edge from-layer="108" from-port="0" to-layer="109" to-port="0" />
		<edge from-layer="109" from-port="1" to-layer="110" to-port="1" />
		<edge from-layer="110" from-port="2" to-layer="113" to-port="0" />
		<edge from-layer="111" from-port="0" to-layer="112" to-port="0" />
		<edge from-layer="112" from-port="1" to-layer="113" to-port="1" />
		<edge from-layer="113" from-port="2" to-layer="115" to-port="0" />
		<edge from-layer="114" from-port="0" to-layer="115" to-port="1" />
		<edge from-layer="115" from-port="2" to-layer="116" to-port="0" />
	</edges>
	<rt_info>
		<Runtime_version value="2025.1.0-18503-6fec06580ab-releases/2025/1" />
		<conversion_parameters>
			<framework value="pytorch" />
			<is_python_object value="True" />
		</conversion_parameters>
	</rt_info>
</net>
